fc_layer.pth (torch, 32222 bytes, 2 tensors)

weight f4 [10, 768]
00000000: 8998 97bd 73bf 8a3d fad2 3a3c 1740 57bd
00000010: 2934 f1bd 63a7 88bd 2fc3 e83c 74c0 443c
00000020: 4746 c0bd 313c 8cbd 4af4 b13c 6820 e43d
00000030: 302e 03be 40f8 b3ba b0be b03d 8fb4 84bd
00000040: c540 083d 9e5b 84bd e291 96bc 9ae7 0dbe
00000050: e9e8 393e 57df 313e b27c a7bb 95e8 1b3d
00000060: b991 3fbd 5ac4 bd3d ca2b 0dbd b910 d03d
00000070: 0d7b 84bc 12d2 f43c 4608 77bc 4859 9a3d
00000080: c177 35bd f172 8dbd de16 f53b ae2e 633d
00000090: 996f 943d a83c e2bc 08e4 533d b11c 2ebe
000000a0: 2367 f03d d29a 463d 9208 13bd c674 fb3d
000000b0: 325f d33d 1945 b5bd 8f60 9cbd a625 823d
000000c0: 90b5 1dbe 186b cd3d c399 c53d 0e1b 9c3b
000000d0: fe2a 6cbd af6f ce3d 5648 50be f887 97bc
000000e0: 0325 643c e9a0 a63d 8e41 b9bc f269 b43d
000000f0: 55a8 1abe 0888 d7bd 6c61 cebd b4fe bcbd
00000100: df53 6bbd 2dad 9f3d 8da6 c9bc 88d4 a43c
00000110: 1642 fe3c 8322 cc3d 7017 0ebc 9cd2 f7bc
00000120: 39e8 4ebc 0f05 70bd 8061 07be 876c 4a3c
00000130: b030 09be 45f9 963c afd8 153d 479c 93bc
00000140: 5909 693d 63b1 03be 8053 f93d 3dfa 853d
00000150: 473f 2f3c cc57 94bd 9a2e 523d ef8b 22bb
00000160: 900f 003d 8148 ee3d 0a50 e63d 1c17 bebc
00000170: fe6c ecbd 18fc 96bd a6cb 11be 95dc 3b3c
00000180: a1d2 33bd d9ad 19bd 12e3 c6bc 6613 59bd
00000190: 6e6a ae3c 5d00 dbbd cb43 15bd 00a9 3f3d
000001a0: 413a af3d 1f32 adbd 278b 953d 90a2 e7bb
000001b0: 7019 15ba 14a0 4ebd eb48 02bc 67ea 7e3d
000001c0: af79 f5bc 9302 0cbe 2e20 08be cc9b c23d
000001d0: 0d45 df3d 7610 1a3e ad0d b6bc 4e88 66bd
000001e0: 6767 243d ba53 593d 7a41 5d3c 9be5 05be
000001f0: a5f7 433c 6857 96bd c341 ee3b 7cd7 b8bd
00000200: c6c3 403d ef30 7f3d 5d90 ecbb 5726 53bc
00000210: 7f19 7fbc 5108 893d 998a 1bbd dad2 993c
00000220: 8fc1 853d 4296 fbbb 2a57 eaba 88d3 2bbd
00000230: 45a9 debd c668 40bc b88d 8dbc f963 babd
00000240: 66bc 643c b71f 68bd e3f2 61bd b507 903d
00000250: 7a3f d4bd 6df7 96bd 086b 2bbd d09b 5d3d
00000260: 2100 d03d 9445 193d e0f9 bebc d496 1abd
00000270: 81e8 773d 82a3 7dbe 8d82 733c 5b92 563d
00000280: 6087 ea3d 4b99 0b3c 405a 91bd 0a10 4dbd
00000290: ae4e 72bd fdc1 0e3d 384b 38bd 86a1 2bbd
000002a0: 173f ecbd 22ac 55bc 91c6 d4bb ce2b 623d
000002b0: 460a 1b3d 5834 e3bd ad13 d0bd f7a2 643d
000002c0: f0f1 47bd 4104 88bd 83ee 0b3b ad34 653b
000002d0: e7a6 3c3c c11c a73d bcaa 0b3d f0e9 b83c
000002e0: 0824 423d 02dc 93bc 58a8 e3bc d21f c43d
000002f0: 20b8 06bd 53bc 9d3d d1e6 b63d 1774 94bc
00000300: 6cd0 88bc 70bb 9b3c 3a70 a0bb 1bdf 94bc
00000310: d515 233c 34cf a33d 8329 183c 8e62 25bc
00000320: 1f2b b8bb d7f4 c63d 868b 6fbd 531b 9dbd
00000330: bad7 0bbe 4333 9c3d a19e 20bd 8a51 8e3d
00000340: e83e 14bd cc48 be3c 6427 d0bd 46bc af3b
00000350: 2342 4b3d c01c 003e 3c4a b13c f8c1 803d
00000360: 5b5c 0cbd 1200 e8bb 61c1 663c a3fd b03d
00000370: c2fc b939 45f3 c4bc 7598 a7bd 48f9 2a3e
00000380: 3e6d 013d 7678 81bd 2ae8 f83d 94c0 1fbb
00000390: 271c 6dbd a967 c7bd d382 f53d c7b0 b0bd
000003a0: 2040 f9ba 5ae9 43bd 9161 eebd 2408 a6bd
000003b0: 3cdb 973d 9d5d 5bbb 04c2 6d3d abd2 eb3c
000003c0: ea0c 6b3e 706c ffbd e6bb fe3d 9ffe b7bb
000003d0: fb91 cbbb 7c46 e73c 3a02 303e cf6d e03c
000003e0: 50b2 5f3d c298 1bbd 101f 743d 4029 d93a
000003f0: c5ea ecbb 5612 793c a806 033d dfc8 df3c
-0.07402141 0.06774797 0.01140284 -0.052551355 -0.11777527 -0.066725515 0.028413383 0.012008775
-0.09388404 -0.06847418 0.021722931 0.111389935 -0.12810588 -0.00137306 0.08630121 -0.06479751
0.033264894 -0.06462787 -0.01838011 -0.1385788 0.18155254 0.17370354 -0.0051113004 0.038063604
-0.04676983 0.09265967 -0.03446559 0.101594396 -0.016171956 0.029885326 -0.015077656 0.0753656
-0.04430366 -0.06906689 0.0074795326 0.05546444 0.07247848 -0.027616814 0.05173114 -0.17003132
0.11738422 0.048487492 -0.035896845 0.12278132 0.103208914 -0.0885107 -0.076356046 0.06354837
-0.15401292 0.10030192 0.09648468 0.0047639674 -0.057658188 0.10079896 -0.20340094 -0.018497452
0.01392484 0.0813616 -0.022614267 0.0880927 -0.15103276 -0.10523993 -0.100771755 -0.09228268
-0.057453033 0.077967025 -0.02461555 0.020120874 0.031037372 0.0996752 -0.00867258 -0.030251794
-0.012628608 -0.058598574 -0.13220787 0.0123549765 -0.13397479 0.018429408 0.0365836 -0.018018855
0.05689368 -0.12860636 0.121741295 0.0654187 0.010696239 -0.072433084 0.051313974 -0.0024802645
0.03126484 0.11634923 0.11245735 -0.023204379 -0.11544226 -0.07372302 -0.14237842 0.011466165
-0.043902043 -0.03751931 -0.024278197 -0.052997015 0.021290984 -0.10693429 -0.036441606 0.04679203
0.08556033 -0.084568255 0.07301932 -0.0070689395 -0.00056876894 -0.05044563 -0.007951955 0.062235262
-0.02996525 -0.13672857 -0.13293526 0.09502372 0.10901842 0.15045342 -0.022223318 -0.056282334
0.040137675 0.053058363 0.01350438 -0.13075869 0.0119608985 -0.0734089 0.007271023 -0.090254754
0.047061704 0.062302526 -0.007219358 -0.012887559 -0.015570044 0.06691039 -0.037973974 0.0187773
0.06531059 -0.0076778242 -0.001787876 -0.04194978 -0.10872129 -0.01174373 -0.01727949 -0.091010995
0.013960933 -0.05667087 -0.055163275 0.0703272 -0.1036367 -0.073714115 -0.04185012 0.054103673
0.101562746 0.03741987 -0.023312509 -0.037741497 0.060524467 -0.24769405 0.014862669 0.05238567
0.11451602 0.008520435 -0.07097292 -0.050064124 -0.059157066 0.03485297 -0.04499361 -0.041902088
-0.11535471 -0.013041528 -0.0064933975 0.055217557 0.037851594 -0.11093968 -0.10160003 0.055819478
-0.048814714 -0.06641436 0.002135188 0.0034974024 0.011514402 0.08159781 0.034098372 0.022572488
0.047397643 -0.018049244 -0.027790233 0.09576382 -0.03289044 0.077019356 0.089307435 -0.018121762
-0.016700946 0.019010276 -0.004896191 -0.018172791 0.009953936 0.07998505 0.009287241 -0.010094298
-0.005620375 0.09714668 -0.05848267 -0.07671227 -0.13656512 0.07626965 -0.03921378 0.06949146
-0.036192805 0.023228072 -0.10163763 0.00536302 0.04962362 0.12510967 0.021641843 0.062869966
-0.034267765 -0.0070800865 0.014084191 0.08642127 0.0003547427 -0.024041781 -0.08183376 0.16696656
0.031598322 -0.06321804 0.12153657 -0.002437626 -0.057888176 -0.097365685 0.11987843 -0.086274676
-0.0019016303 -0.047829963 -0.11639703 -0.081070215 0.074148625 -0.0033472546 0.058046356 0.028786978
0.22954145 -0.12471855 0.124381825 -0.00561507 -0.0062124706 0.028231852 0.1718835 0.02739611
0.05461341 -0.037987478 0.059599936 0.001656808 -0.007230135 0.015202126 0.03198877 0.027317462

bias f4 [10]
00000000: d959 64ba 89ee 70bd 6598 613d e184 803d
00000010: bd9b 54bd ab03 04bc aa43 973d b645 a0bd
00000020: 098c 0bbd 9dcc 00bd
-0.0008710898 -0.058821235 0.055076975 0.06275345 -0.051906336 -0.008057515 0.07385953 -0.07825796
-0.034069095 -0.031445134
