notebooks/logs/ViT_last_bias/global_Atb.pth (torch, 10475 bytes, 1 tensors)

vit.blocks.11.attn.qkv.bias f4 [2304]
-0.4478834 0.925787 0.8436425 0.65502155 0.35180643 0.7769833 -2.5043826 -0.014019126
-0.3272632 0.4311415 0.7619285 -0.2781909 0.48708674 -0.567358 0.458326 0.7381088
1.2213669 0.26147658 -0.18982798 -0.06884749 1.2327061 0.65063196 0.15499702 -0.3984246
0.46250343 0.060866687 -0.9008527 0.17038745 0.07675941 0.9628261 0.357804 1.0931113
0.34040818 -0.09238973 -0.16570051 0.6559716 -0.3658788 0.75499153 -0.5690554 0.6634722
-0.019605488 0.57606876 -0.2600101 0.4146512 0.2604044 0.1478353 -0.10237887 -0.25095603
0.21630484 -0.0003112709 0.19675966 -0.44089383 0.13901615 -1.2311864 -0.79309165 0.84059566
0.18442163 -0.13180493 0.9811541 -0.3799166 0.47539 0.21729152 -0.25435966 0.22158056
-0.18946497 0.2543169 -0.33161256 -0.5300497 0.18735728 0.11999475 -0.53663075 0.19248612
-0.081801765 0.33186924 0.1524422 0.040359057 0.67351365 0.44475293 0.12619369 -0.48473296
0.17329073 0.24849841 0.5946218 -0.97025067 0.69705486 -0.1452273 0.39052027 -0.30781388
0.20388515 0.36984396 0.2569349 -0.41344038 -0.03747818 0.18384446 0.353131 0.12574492
0.62739086 -1.1212211 -0.41452277 0.054257292 0.40498742 0.4284665 -0.44567645 -0.1821747
0.1186332 0.32002684 -0.63367015 -0.20557149 -0.4688979 -0.5227828 -0.6918057 -0.96176046
-0.016442062 0.31740847 0.39750627 -0.45937997 -0.21799214 0.29215667 -0.17600834 0.12927043
0.20232542 -0.3257667 -0.28336123 -0.11357928 0.553256 -0.049084224 -0.09549945 -0.46432373
-0.13640101 0.21089329 -0.08390214 -0.13161603 -0.13748251 0.17062649 -0.08326423 -0.08089854
0.5809178 -0.4000764 -0.04165825 0.12489036 -0.201575 1.1836219 0.10531156 0.023968548
-0.033466656 0.2342684 0.17946006 -0.38560736 0.32916012 -0.3052856 -0.37061957 -0.34735247
0.23473036 0.20425838 0.0491759 0.17700689 -0.20570785 -0.29701224 -0.047763117 -0.74770164
0.21591413 -0.07724292 0.19964257 -0.2936867 0.19269277 0.008947583 0.022446955 0.15495154
-0.073298536 0.17048399 0.16242783 -0.29335862 0.22132412 0.21033058 0.18472834 -0.28253865
0.24420938 -0.3801104 -0.38300827 -0.09833574 0.37523767 -0.14033027 0.1598269 0.051072076
-0.12205959 -0.17954303 0.4705177 -0.00936339 -0.42451093 -0.36556107 -0.024844538 0.16034149
-0.029197305 -0.2998638 -0.30230793 0.03304569 0.6740422 0.33780116 -0.17153849 -0.02281058
0.43488595 0.3901763 0.26485872 -0.0040360424 -0.52053875 0.08863948 0.0528974 0.3333641
-0.21859726 -0.41985053 -0.67925 -0.23601973 0.09926063 -0.15242095 -0.07400619 0.09285832
0.06028168 -0.13129464 -0.6450584 -0.57847303 0.102977775 -0.64855605 -1.7230711 -0.34620398
0.17211896 -0.23326205 -0.123495184 0.049953673 0.22382315 0.74828476 0.28306922 -0.24873456
0.089741446 -0.13629971 -0.64851075 -0.051541395 -0.045874093 -0.0070964405 0.14609767 0.17179245
-0.08337731 0.24980566 -0.095770404 0.34075612 0.3449783 0.14377716 -0.11243435 -0.26643068
-0.24255331 -0.19341803 -0.2657953 0.10570602 0.37796155 0.23411241 -0.30994642 0.22855866
00000000: f950 e5be 6000 6d3f f4f8 573f 7eaf 273f
00000010: f91f b43e 61e8 463f ce47 20c0 7ab0 65bc
00000020: 0b8f a7be 94be dc3e bf0d 433f 0a6f 8ebe
00000030: 6f63 f93e 603e 11bf b5a9 ea3e b3f4 3c3f
00000040: c055 9c3f 42e0 853e 4462 42be eaff 8cbd
00000050: 50c9 9d3f d18f 263f 8ab7 1e3e 4ffe cbbe
00000060: 40cd ec3e 594f 793d 489e 66bf 0c7a 2e3e
00000070: 0a34 9d3d c57b 763f 1632 b73e 12eb 8b3f
00000080: fb49 ae3e d436 bdbd 65ad 29be c1ed 273f
00000090: 7754 bbbe 2047 413f 9dad 11bf 50d9 293f
000000a0: b09b a0bc 3e79 133f 0b20 85be 294d d43e
000000b0: ba53 853e 2362 173e 03ac d1bd 4f7d 80be
000000c0: 047f 5d3e 1332 a3b9 5d7b 493e d6bc e1be
000000d0: 405a 0e3e 8497 9dbf 0e08 4bbf 4731 573f
000000e0: 06d9 3c3e dff7 06be ea2c 7b3f 6e84 c2be
000000f0: 5166 f33e ab81 5e3e 6e3b 82be 04e6 623e
00000100: 1b03 42be d335 823e 1fc9 a9be 56b1 07bf
00000110: 96da 3f3e cfbf f53d a260 09bf 151b 453e
00000120: af87 a7bd c4ea a93e cf19 1c3e 8a4f 253d
00000130: 646b 2c3f a8b6 e33e eb38 013e eb2e f8be
00000140: 2073 313e 5e76 7e3e 2239 183f 5962 78bf
00000150: 3072 323f 77b6 14be 46f2 c73e c899 9dbe
00000160: 45c7 503e 305c bd3e f98c 833e 75ae d3be
00000170: b882 19bd b941 3c3e 96cd b43e 47c3 003e
00000180: b09c 203f 2c84 8fbf 543c d4be e53c 5e3d
00000190: 835a cf3e f65f db3e b42f e4be 018c 3abe
000001a0: f7f5 f23d 8fda a33e 3538 22bf 5581 52be
000001b0: 6313 f0be 18d5 05bf 2e1a 31bf ef35 76bf
000001c0: 81b1 86bc 5d83 a23e f185 cb3e da33 ebbe
000001d0: 5539 5fbe 8f95 953e 883b 34be 785f 043e
000001e0: 652e 4f3e e5ca a6be b914 91be 419c e8bd
000001f0: 2fa2 0d3f 8a0c 49bd 3795 c3bd d7bb edbe
00000200: b5ac 0bbe 69f4 573e e3d4 abbd 5ac6 06be
00000210: 37c8 0cbe b6b8 2e3e 7086 aabd 22ae a5bd
00000220: 07b7 143f d0d6 ccbe d7a1 2abd 84c6 ff3d
00000230: ad69 4ebe ec80 973f 96ad d73d b059 c43c
00000240: 5514 09bd 0ee4 6f3e 61c4 373e 546e c5be
00000250: ad87 a83e 654e 9cbe d9c1 bdbe 2fd8 b1be
00000260: 285d 703e 1c29 513e ab6c 493d 4b41 353e
00000270: 14a5 52be fd11 98be 42a3 43bd 6069 3fbf
00000280: 9818 5d3e 8931 9ebd 1a6f 4c3e 1a5e 96be
00000290: 4151 453e e298 123c ade2 b73c 9eab 1e3e
000002a0: 8b1d 96bd 5b93 2e3e 7b53 263e 1a33 96be
000002b0: caa2 623e e660 573e 6d29 3d3e e8a8 90be
000002c0: 0612 7a3e d59d c2be a919 c4be 4064 c9bd
000002d0: 271f c03e bdb2 0fbe aaa9 233e f430 513d
000002e0: 61fa f9bd 21da 37be b2e7 f03e e768 19bc
000002f0: 7f59 d9be d22a bbbe c686 cbbc 8f30 243e
00000300: 302f efbc bf87 99be 1bc8 9abe eb5a 073d
00000310: 088e 2c3f 46f4 ac3e c9a7 2fbe 41dd babc
00000320: 5fa9 de3e 30c5 c73e 909b 873e c740 84bb
00000330: 0742 05bf 9e88 b53d f2aa 583d b3ae aa3e
00000340: f6d7 5fbe a6f6 d6be 54e3 2dbf 28af 71be
00000350: 2849 cb3d 3d14 1cbe 8f90 97bd 812c be3d
00000360: ece9 763d 1a72 06be 8c22 25bf cf16 14bf
00000370: 03e6 d23d c507 26bf 988d dcbf a641 b1be
00000380: f43f 303e 3fdc 6ebe 0beb fcbd 399c 4c3d
00000390: e531 653e 978f 3f3f 73ee 903e 46b4 7ebe
000003a0: 5dca b73d 2792 0bbe cd04 26bf 121d 53bd
000003b0: 79e6 3bbd 4289 e8bb a19a 153e 5cea 2f3e
000003c0: b9c1 aabd 0ecd 7f3e 4623 c4bd 9677 ae3e
000003d0: ffa0 b03e 523a 133e fb43 e6bd 9a69 88be
000003e0: e55f 78be 600f 46be 5216 88be 667c d83d
000003f0: 2d84 c13e 2abb 6f3e 4cb1 9ebe 480b 6a3e
