notebooks/logs/ViT_3_last_bias/global_Atb.pth (torch, 29417 bytes, 3 tensors)

vit.blocks.9.attn.qkv.bias f4 [2304]
0	0xbf1e3b05	-0.61808807
1	0xbd682ee0	-0.05668533
2	0xbf0aef6e	-0.5427159
3	0xbe82470e	-0.25444835
4	0x3edb3ac1	0.42818263
5	0x3f3e726c	0.74393344
6	0xbec1f567	-0.3788254
7	0xbeab4cc2	-0.33457
8	0xbdcd1888	-0.100144446
9	0x3ef82821	0.48468116
10	0xbecba71d	-0.39775935
11	0x3f159fa1	0.584467
12	0x3cba7ecf	0.022765545
13	0x3f0ed01f	0.5578632
14	0x3e70cb5d	0.23515077
15	0x3f477203	0.77908343
16	0x3d8699b7	0.065722875
17	0x3f02ba75	0.5106576
18	0xbe97d862	-0.29657274
19	0xbf908ee4	-1.1293607
20	0x3b9875ad	0.0046527
21	0x3e35b5c6	0.17745122
22	0x3db9a5ff	0.09064864
23	0x3efe3e44	0.4965688
24	0x3e803ee4	0.25047982
25	0xbe11a036	-0.14221272
26	0x3e7baa3b	0.24576657
27	0xbe34c3f4	-0.17652875
28	0x3f81f771	1.0153638
29	0x3f23a39b	0.6392152
30	0xbeb5d1a4	-0.35511506
31	0x3dba8461	0.091072805
32	0xbcbdacfa	-0.02315377
33	0x3ec4e95c	0.3845929
34	0xbefb3819	-0.49066237
35	0xbe2fc11f	-0.17163514
36	0x3ee0068f	0.43755004
37	0x3e96711a	0.29383165
38	0x3f117baa	0.5682932
39	0x3d384c2f	0.04499453
40	0x3d263183	0.04057456
41	0xbe02c048	-0.12768662
42	0xbfa507aa	-1.2892964
43	0x3e945341	0.28969768
44	0xbf0d3805	-0.55163604
45	0x3edfce60	0.4371214
46	0xbf4a25f6	-0.78964174
47	0xbf2f3545	-0.6844066
48	0xbf24cfce	-0.64379585
49	0x3f2ab09f	0.6667575
50	0x3ea9a884	0.3313638
51	0x3f2eef0f	0.68333524
52	0xbf3fdad5	-0.74943286
53	0xbf2b50ce	-0.66920173
54	0x3f5cf363	0.8630888
55	0xbf165ceb	-0.5873553
56	0x3ecb12ae	0.3966269
57	0x3ee160fc	0.44019306
58	0x3ea1b073	0.31579933
59	0x3f030145	0.5117381
60	0x3dadf957	0.084948234
61	0xbf276daa	-0.6540171
62	0x3e3e2838	0.1857003
63	0xbedde00c	-0.43334997
64	0x3e1bf94c	0.15231818
65	0xbe046576	-0.1292933
66	0x3ebe3234	0.37147677
67	0x3e8bac21	0.2727976
68	0x3e9b3495	0.30313554
69	0x3ba84312	0.0051349485
70	0x3d144309	0.036196742
71	0x3cb0a5d5	0.02156345
72	0x3e590ea4	0.21196991
73	0xbf1d915d	-0.6154993
74	0x3de98376	0.11402027
75	0x3e267f7e	0.16259572
76	0xbf02514e	-0.5090531
77	0x3e421083	0.18951611
78	0x3ee23416	0.44180363
79	0x3d3c4f21	0.0459739
80	0x3ea18c0f	0.3155217
81	0xbee29d52	-0.4426065
82	0x3ee1127b	0.43959412
83	0x3e0bc6d8	0.13650072
84	0x3cbcc1dd	0.02304166
85	0xbebd5d2a	-0.3698514
86	0x3eb65807	0.35614035
87	0x3d508801	0.050910953
88	0x3ef3df48	0.47631288
89	0x3e1df4b6	0.15425381
90	0x3cd99ef5	0.026565054
91	0xbef28490	-0.47366762
92	0x3f3e5d50	0.74361134
93	0xbed2e6e3	-0.41191778
94	0x3ea2f606	0.31828326
95	0xbe86c9ce	-0.2632584
96	0xbed8d5bc	-0.42350566
97	0xbe949530	-0.2902007
98	0x3e7eba9c	0.24875873
99	0xbd80d815	-0.062912144
100	0x3e36a487	0.178362
101	0xbc963f29	-0.018340664
102	0xbeab2d37	-0.33432934
103	0xbe92bfec	-0.2866205
104	0x3e34809a	0.17627183
105	0x3d9b84cc	0.07593688
106	0x3eed5240	0.46351814
107	0x3d1318d6	0.035912357
108	0xbedd1fd2	-0.4318834
109	0x3eb35f82	0.35033804
110	0xbe0ad79c	-0.13558811
111	0xbf00d81a	-0.50329745
112	0xbe77b18d	-0.24188824
113	0x3e947af3	0.29000053
114	0xbee63af2	-0.44966847
115	0xbecfbd52	-0.40574127
116	0xbe83e0eb	-0.25757536
117	0xbe5eec58	-0.21769845
118	0x3b9400fc	0.004516719
119	0xbe1e2e26	-0.15447292
120	0x3b6a8cfa	0.0035789595
121	0x3be9cfcf	0.0071353684
122	0xbe888668	-0.26665044
123	0xbe3004a0	-0.17189264
124	0xbed0e472	-0.4079929
125	0x3db779ec	0.089588016
126	0x3d199a9f	0.037500974
127	0xbd917b40	-0.07103586
128	0xbef58c20	-0.4795847
129	0xbebe0998	-0.37116694
130	0xbe29c757	-0.16579948
131	0x3e15ea4d	0.1464016
132	0x3e885c26	0.26632804
133	0xbf9d7413	-1.2301048
134	0x3ef1c9e1	0.47224334
135	0x3f558a3b	0.8341405
136	0x3dd1a44d	0.10236416
137	0x3ee9e2c3	0.45680818
138	0x3ebaffdc	0.3652333
139	0x3f20208a	0.6254965
140	0x3f0d2c21	0.5514546
141	0x3f615a9b	0.8802888
142	0xbed3714f	-0.41297385
143	0x3d7e9d44	0.0621617
144	0x3e2c0d1f	0.1680188
145	0xbee397bf	-0.4445171
146	0xbe513784	-0.20431334
147	0x3f2079e5	0.62685996
148	0xbf143463	-0.57892436
149	0xbe810cb3	-0.25205
150	0x3ecaa269	0.39577034
151	0x3f1d15b1	0.61361223
152	0x3ec87a91	0.3915601
153	0x3e60af20	0.21941805
154	0xbf03c028	-0.5146508
155	0xbe653bcb	-0.2238609
156	0xbf9e91f5	-1.2388293
157	0x3dbfe37d	0.09369562
158	0xbf5dea5a	-0.8668572
159	0x3e27f66e	0.16402599
160	0x3ea33571	0.3187671
161	0x3ec71696	0.3888442
162	0x3f31f6aa	0.69517004
163	0xbe5b5d2c	-0.21422261
164	0x3dc429c5	0.095782794
165	0xbf9943c7	-1.1973809
166	0xbd2dea69	-0.04245988
167	0xbece13a2	-0.40249354
168	0xbf0dc268	-0.55374765
169	0x3d3b3c9d	0.045712102
170	0x3f756dc5	0.9587062
171	0x3e22638a	0.15858284
172	0x3f098240	0.5371437
173	0xbf45e4a1	-0.77301985
174	0xbf527e30	-0.82223797
175	0xbe9c72f6	-0.30556458
176	0x3f355f0a	0.70848143
177	0x3e3226f1	0.17397667
178	0x40282df1	2.627804
179	0x3deb6576	0.114939615
180	0x3e28570e	0.16439459
181	0xbdfe363a	-0.12412687
182	0xbe075286	-0.13215074
183	0x3fadcf30	1.3578854
184	0x3b0ee2e4	0.0021802718
185	0xbf525f94	-0.8217709
186	0xbd0c6df7	-0.03428456
187	0xbeeccdba	-0.46250707
188	0x3f2cb1f4	0.67459035
189	0x3cacb4f5	0.02108238
190	0xbe8ca737	-0.27471325
191	0x3ed26d3c	0.41098964
192	0xbef87b8b	-0.48531756
193	0x3e459822	0.19296315
194	0x3ead89a6	0.3389408
195	0xbdc1155c	-0.09427902
196	0xbf244edb	-0.64182824
197	0xbe90d786	-0.2828943
198	0x3eca91e0	0.3956442
199	0x3e978a4b	0.29597697
200	0xbea22b18	-0.31673503
201	0x3f197ab4	0.59952855
202	0x3ec79fde	0.38989156
203	0x3f390355	0.7227071
204	0x3e045828	0.12924254
205	0xbe40536f	-0.18781827
206	0xbe1321b1	-0.14368321
207	0x3c83c857	0.01608674
208	0xbdb863c0	-0.09003401
209	0xbedc6022	-0.43042094
210	0x3e299a60	0.16562796
211	0x3d9c7670	0.07639778
212	0x3e583bf5	0.21116622
213	0x3e849d13	0.25901088
214	0xbcf97e42	-0.030455712
215	0x3de0f89b	0.10984918
216	0x3f6912b8	0.9104419
217	0x3e1e6936	0.15469822
218	0xbb94902e	-0.004533789
219	0x3e6bc03d	0.23022552
220	0xbec9ff78	-0.3945272
221	0xbe303054	-0.17205936
222	0x3edc1932	0.42987972
223	0xbda8d5dd	-0.08243916
224	0xbe85cc05	-0.26132217
225	0x3e624e40	0.22100163
226	0x3f184596	0.5948118
227	0xbe8ed513	-0.27896938
228	0xbdb4ef22	-0.088346735
229	0xbdf1561a	-0.11784001
230	0xbf0c0b87	-0.5470509
231	0x3dfed9b2	0.12443866
232	0xbe80195c	-0.25019348
233	0xbe0241b0	-0.1272037
234	0xbe430f44	-0.19048792
235	0x3ea8cd7d	0.32969275
236	0xbd620ecb	-0.05518989
237	0xbd1ede69	-0.038786326
238	0xbe65c0ad	-0.22436781
239	0xbe38ed57	-0.18059288
240	0xbd24cb09	-0.040232692
241	0xbcddea32	-0.027089212
242	0x3db5f0d9	0.08883829
243	0xbdf613c0	-0.12015486
244	0x3e48093a	0.1953477
245	0x3b925de8	0.004466761
246	0xbce73ad2	-0.02822629
247	0x3d340a8d	0.043955375
248	0x3e17dd9c	0.14830631
249	0x3e659ec8	0.22423851
250	0x3e8a6079	0.27026728
251	0xbe8ec35b	-0.2788342
252	0xbdc81532	-0.09769668
253	0x3efe48ed	0.49665013
254	0xbf0f017a	-0.5586163
255	0xbe0c7891	-0.13717867

vit.blocks.10.attn.qkv.bias f4 [2304]
0	0x3ea4a0b1	0.32153848
1	0x3d402528	0.046910435
2	0xbe549009	-0.2075807
3	0xbe1451b1	-0.14484288
4	0x3e45f93d	0.19333358
5	0x3dcccdcc	0.1000019
6	0xbd24ea8e	-0.04026275
7	0xbe5d60f6	-0.21619019
8	0xbe988a6c	-0.29793108
9	0xbd4645c2	-0.04840637
10	0xbe229541	-0.15877248
11	0x3e8619aa	0.26191455
12	0xbe6cc9c8	-0.23123848
13	0x3fbf95b0	1.4967556
14	0xbe43cb94	-0.19120628
15	0x3ee82f99	0.45348814
16	0x3eac8f5c	0.33703125
17	0x3d4c639c	0.049899682
18	0xbdc6c7db	-0.09706088
19	0x3e2ea37f	0.17054556
20	0x3d9c363f	0.07627534
21	0xbeece167	-0.46265718
22	0x3e6d9eb0	0.23205066
23	0xbe7ab6b8	-0.24483764
24	0xbe8b5e04	-0.27220166
25	0x3ad9cc3f	0.0016616656
26	0xbd99629b	-0.074895106
27	0x3bc97496	0.0061479313
28	0xbd4626b9	-0.048376773
29	0xbe06ef8f	-0.13177322
30	0xbe8a751a	-0.27042466
31	0xbd1284eb	-0.03577129
32	0x3db528e8	0.08845693
33	0x3e7ff50d	0.24995823
34	0xbe61529a	-0.22004166
35	0xbea62398	-0.3244903
36	0xbe4f7d4f	-0.20262645
37	0x3dda65a6	0.10663919
38	0x3cb66b7d	0.022268051
39	0xbe13a6a0	-0.14419031
40	0xbd0d48b2	-0.034493156
41	0x3e56c95e	0.20975253
42	0xbdbcf66c	-0.09226689
43	0x3ea9f172	0.3319202
44	0xbe45608a	-0.19275108
45	0x3d9285bb	0.07154413
46	0xbe0b9c7d	-0.13633914
47	0xbe12eadf	-0.14347409
48	0xbe004252	-0.12525299
49	0xbe6f4dbe	-0.233695
50	0xbc835c5c	-0.016035251
51	0x3ea4f315	0.32216707
52	0xbad453df	-0.0016199312
53	0x3e881a57	0.26582596
54	0xbe3b7206	-0.18305215
55	0x3c99c185	0.018769035
56	0x3e11e949	0.14249147
57	0x3ce1d20d	0.02756598
58	0xbe1b78c3	-0.15182786
59	0x3e410599	0.18849792
60	0x3e8e0706	0.27739733
61	0xbeb2dd0c	-0.3493427
62	0x3e316886	0.17325029
63	0x3e744a41	0.2385645
64	0x3ea79a42	0.32734877
65	0xc051ba61	-3.2770007
66	0x3f0b52ce	0.54423225
67	0x3e5eedbf	0.2177038
68	0x3e90044b	0.28128275
69	0x3f4d5349	0.8020521
70	0xbe89704d	-0.2684349
71	0x3eb79526	0.3585598
72	0xbf39cb51	-0.7257586
73	0x3f99946c	1.199842
74	0xbe94f5c1	-0.29093745
75	0xbe5e8b42	-0.2173281
76	0x405aa926	3.416574
77	0x4005e6d4	2.0922136
78	0xbf6fd2c1	-0.9368096
79	0xbfa11477	-1.258437
80	0xbe9b7ab3	-0.3036705
81	0xbf4349ce	-0.7628449
82	0xbf5f11b5	-0.87136394
83	0x400700dd	2.1094277
84	0xbf6dc9a6	-0.92885816
85	0xbf328e24	-0.6974814
86	0xbe1a827c	-0.15088838
87	0x40084734	2.129346
88	0xbe93388c	-0.2875408
89	0xc04a6bb4	-3.1628237
90	0xc035c4ae	-2.8401294
91	0xbfc8c658	-1.568553
92	0xbf043462	-0.5164243
93	0x40169d88	2.353365
94	0x3a971920	0.0011527874
95	0xbfae9831	-1.3640195
96	0xc06c46d2	-3.6918225
97	0xbc9922e0	-0.018693388
98	0xbebef9cf	-0.37299964
99	0x3f5f3dbc	0.87203574
100	0x3f72489f	0.9464206
101	0x3f0c16f9	0.54722553
102	0x3fea1e31	1.8290464
103	0x40367900	2.8511353
104	0xbea20115	-0.3164145
105	0xbe37e997	-0.17960201
106	0x3f03936b	0.51396817
107	0xbdd46d93	-0.10372462
108	0xbfd0d098	-1.6313658
109	0xbf3bec60	-0.73407555
110	0xbfa9b92a	-1.3259633
111	0xbf397986	-0.72451055
112	0x3fa11e82	1.2587435
113	0x3f0616cf	0.52378553
114	0x3f39c59d	0.7256716
115	0xc0037d0d	-2.0545075
116	0x3f8e9b76	1.1141193
117	0xc00e8ac7	-2.2272203
118	0x3fd8b8c8	1.6931391
119	0xbfbe6a22	-1.4876139
120	0xc022539d	-2.5363533
121	0xbf5cd1eb	-0.8625781
122	0x40100214	2.2501268
123	0xbf5ef702	-0.87095654
124	0x3b93965b	0.0045040078
125	0xbf7c8ab6	-0.98649156
126	0x3fedb0dd	1.8569599
127	0xbfcc787c	-1.5974269
128	0xbef26b6f	-0.4734759
129	0xbeac2acf	-0.3362641
130	0x3d981e4a	0.07427652
131	0x3e8e34db	0.277747
132	0xbf1462f4	-0.5796349
133	0xbe50adea	-0.20378843
134	0x3f476880	0.7789383
135	0x3f3e2a7b	0.7428357
136	0x3eb29b51	0.34884122
137	0x3cdd9167	0.027046872
138	0x3bc4b2a6	0.006002742
139	0xbef3eab5	-0.47640005
140	0x3d3c3a24	0.045953885
141	0x3ea22f35	0.3167664
142	0xbeb1d05c	-0.34729278
143	0xbe79c6e5	-0.24392278
144	0x3e18adc0	0.1491003
145	0xbe6c4ffb	-0.23077385
146	0x3eae9788	0.34099984
147	0xbe0a7c8d	-0.13524075
148	0x3f09646d	0.5366886
149	0x3e05bb7b	0.130598
150	0x3edcbf95	0.43114915
151	0xbf21ccd6	-0.6320318
152	0xbe6e1c4d	-0.23252983
153	0xbe94378c	-0.2894863
154	0x3e0725cf	0.13198017
155	0xbea35511	-0.31900838
156	0xbec5e7cd	-0.38653412
157	0xbea5b1b7	-0.32362148
158	0x3c411830	0.011785552
159	0x3e20fd3c	0.15721601
160	0x3e7c983d	0.2466745
161	0xbe45abc6	-0.19303808
162	0xbdf12832	-0.11775245
163	0x3ecc0f4f	0.3985543
164	0x3e2a3cb0	0.16624713
165	0xbd7b4429	-0.0613443
166	0xb8d4e479	-0.00010151504
167	0xbce95954	-0.028484978
168	0x3dac0df4	0.08401099
169	0x3d5d6077	0.054047074
170	0x3e129ba7	0.14317189
171	0x3e0740c3	0.13208298
172	0x3e56e9a0	0.20987558
173	0x3ea7a8b7	0.32745907
174	0xbc38d2bc	-0.011280712
175	0xbf231caf	-0.6371564
176	0xbe81a43d	-0.25320616
177	0x3dad540b	0.084632955
178	0x3e45fa9c	0.19333881
179	0x3e4f4320	0.2024045
180	0xbdff164b	-0.12455424
181	0xbade6376	-0.0016966898
182	0x3ec4522f	0.3834395
183	0xbf21b1c5	-0.6316188
184	0xbe662753	-0.22475938
185	0x3e3fa3f0	0.18714881
186	0x3e3323d0	0.1749413
187	0xbe90c18f	-0.28272673
188	0xbe6606d3	-0.2246354
189	0x3f578c62	0.8419858
190	0xbb415b35	-0.0029503827
191	0x3db1485d	0.0865638
192	0xbe91afc5	-0.28454414
193	0x3e64d579	0.22347058
194	0xbf1175f7	-0.56820625
195	0xbd525429	-0.051349793
196	0xbda36a8e	-0.07979308
197	0xbf47a099	-0.7797943
198	0xbccb1e13	-0.024794614
199	0xbf241436	-0.6409334
200	0xbd944a53	-0.07240739
201	0x3f0cfd29	0.5507379
202	0xbce47f16	-0.02789263
203	0xbe1c7186	-0.15277681
204	0x3f63c2eb	0.88969296
205	0x3ea3ed7c	0.32017124
206	0x3f17dd95	0.5932248
207	0x3e9ee805	0.31036392
208	0xbf1592d0	-0.58427143
209	0x3f90a22e	1.1299493
210	0x3def0a19	0.11671848
211	0xbd93f7d4	-0.07225004
212	0xbdf8c4b4	-0.12146893
213	0x3e569b37	0.20957647
214	0xbe110a8d	-0.14164181
215	0x3dd6055b	0.1045024
216	0x3eb9ae20	0.3626566
217	0xbf0b5756	-0.5443014
218	0x3eb4f4e0	0.35343075
219	0xbf29714b	-0.66188496
220	0xbf12cc1d	-0.573427
221	0xbecdc167	-0.40186617
222	0x3fb0f4bb	1.3824686
223	0xbe7828bd	-0.2423429
224	0x3f219159	0.6311241
225	0x3efa18a2	0.48846918
226	0xbe8f9173	-0.28040656
227	0xbee4013e	-0.44532198
228	0x3f55a0c9	0.83448464
229	0xbe5cf505	-0.21577843
230	0xbe46c204	-0.19409949
231	0xbe9d0fb4	-0.30676043
232	0xbe95cb95	-0.29256883
233	0xbf4c2399	-0.7974182
234	0xbdf704e1	-0.120614775
235	0xbec30bf8	-0.3809507
236	0xbec74e79	-0.38927057
237	0xbfad6b98	-1.354846
238	0xbe17d941	-0.1482897
239	0x3e4456fe	0.1917381
240	0xbf3fcf2b	-0.7492549
241	0x3ef4e682	0.47832114
242	0x3e7e43e4	0.24830586
243	0x3d604851	0.054756466
244	0x3d9c9176	0.07644932
245	0xbda0f365	-0.07858924
246	0x3dca0fb3	0.09866276
247	0x3e4dce1b	0.20098154
248	0xbc8faf7f	-0.017539738
249	0xbf09fb04	-0.53898644
250	0xbf79f257	-0.97635406
251	0xbf39423d	-0.72366697
252	0x3dea4f5e	0.11440919
253	0x3e989e91	0.29808477
254	0xbef350da	-0.47522622
255	0x3e0b4eb5	0.13604243

vit.blocks.11.attn.qkv.bias f4 [2304]
0	0xbee550f9	-0.4478834
1	0x3f6d0060	0.925787
2	0x3f57f8f4	0.8436425
3	0x3f27af7e	0.65502155
4	0x3eb41ff9	0.35180643
5	0x3f46e861	0.7769833
6	0xc02047ce	-2.5043826
7	0xbc65b07a	-0.014019126
8	0xbea78f0b	-0.3272632
9	0x3edcbe94	0.4311415
10	0x3f430dbf	0.7619285
11	0xbe8e6f0a	-0.2781909
12	0x3ef9636f	0.48708674
13	0xbf113e60	-0.567358
14	0x3eeaa9b5	0.458326
15	0x3f3cf4b3	0.7381088
16	0x3f9c55c0	1.2213669
17	0x3e85e042	0.26147658
18	0xbe426244	-0.18982798
19	0xbd8cffea	-0.06884749
20	0x3f9dc950	1.2327061
21	0x3f268fd1	0.65063196
22	0x3e1eb78a	0.15499702
23	0xbecbfe4f	-0.3984246
24	0x3eeccd40	0.46250343
25	0x3d794f59	0.060866687
26	0xbf669e48	-0.9008527
27	0x3e2e7a0c	0.17038745
28	0x3d9d340a	0.07675941
29	0x3f767bc5	0.9628261
30	0x3eb73216	0.357804
31	0x3f8beb12	1.0931113
32	0x3eae49fb	0.34040818
33	0xbdbd36d4	-0.09238973
34	0xbe29ad65	-0.16570051
35	0x3f27edc1	0.6559716
36	0xbebb5477	-0.3658788
37	0x3f414720	0.75499153
38	0xbf11ad9d	-0.5690554
39	0x3f29d950	0.6634722
40	0xbca09bb0	-0.019605488
41	0x3f13793e	0.57606876
42	0xbe85200b	-0.2600101
43	0x3ed44d29	0.4146512
44	0x3e8553ba	0.2604044
45	0x3e176223	0.1478353
46	0xbdd1ac03	-0.10237887
47	0xbe807d4f	-0.25095603
48	0x3e5d7f04	0.21630484
49	0xb9a33213	-0.0003112709
50	0x3e497b5d	0.19675966
51	0xbee1bcd6	-0.44089383
52	0x3e0e5a40	0.13901615
53	0xbf9d9784	-1.2311864
54	0xbf4b080e	-0.79309165
55	0x3f573147	0.84059566
56	0x3e3cd906	0.18442163
57	0xbe06f7df	-0.13180493
58	0x3f7b2cea	0.9811541
59	0xbec2846e	-0.3799166
60	0x3ef36651	0.47539
61	0x3e5e81ab	0.21729152
62	0xbe823b6e	-0.25435966
63	0x3e62e604	0.22158056
64	0xbe42031b	-0.18946497
65	0x3e8235d3	0.2543169
66	0xbea9c91f	-0.33161256
67	0xbf07b156	-0.5300497
68	0x3e3fda96	0.18735728
69	0x3df5bfcf	0.11999475
70	0xbf0960a2	-0.53663075
71	0x3e451b15	0.19248612
72	0xbda787af	-0.081801765
73	0x3ea9eac4	0.33186924
74	0x3e1c19cf	0.1524422
75	0x3d254f8a	0.040359057
76	0x3f2c6b64	0.67351365
77	0x3ee3b6a8	0.44475293
78	0x3e0138eb	0.12619369
79	0xbef82eeb	-0.48473296
80	0x3e317320	0.17329073
81	0x3e7e765e	0.24849841
82	0x3f183922	0.5946218
83	0xbf786259	-0.97025067
84	0x3f327230	0.69705486
85	0xbe14b677	-0.1452273
86	0x3ec7f246	0.39052027
87	0xbe9d99c8	-0.30781388
88	0x3e50c745	0.20388515
89	0x3ebd5c30	0.36984396
90	0x3e838cf9	0.2569349
91	0xbed3ae75	-0.41344038
92	0xbd1982b8	-0.03747818
93	0x3e3c41b9	0.18384446
94	0x3eb4cd96	0.353131
95	0x3e00c347	0.12574492
96	0x3f209cb0	0.62739086
97	0xbf8f842c	-1.1212211
98	0xbed43c54	-0.41452277
99	0x3d5e3ce5	0.054257292
100	0x3ecf5a83	0.40498742
101	0x3edb5ff6	0.4284665
102	0xbee42fb4	-0.44567645
103	0xbe3a8c01	-0.1821747
104	0x3df2f5f7	0.1186332
105	0x3ea3da8f	0.32002684
106	0xbf223835	-0.63367015
107	0xbe528155	-0.20557149
108	0xbef01363	-0.4688979
109	0xbf05d518	-0.5227828
110	0xbf311a2e	-0.6918057
111	0xbf7635ef	-0.96176046
112	0xbc86b181	-0.016442062
113	0x3ea2835d	0.31740847
114	0x3ecb85f1	0.39750627
115	0xbeeb33da	-0.45937997
116	0xbe5f3955	-0.21799214
117	0x3e95958f	0.29215667
118	0xbe343b88	-0.17600834
119	0x3e045f78	0.12927043
120	0x3e4f2e65	0.20232542
121	0xbea6cae5	-0.3257667
122	0xbe9114b9	-0.28336123
123	0xbde89c41	-0.11357928
124	0x3f0da22f	0.553256
125	0xbd490c8a	-0.049084224
126	0xbdc39537	-0.09549945
127	0xbeedbbd7	-0.46432373
128	0xbe0bacb5	-0.13640101
129	0x3e57f469	0.21089329
130	0xbdabd4e3	-0.08390214
131	0xbe06c65a	-0.13161603
132	0xbe0cc837	-0.13748251
133	0x3e2eb8b6	0.17062649
134	0xbdaa8670	-0.08326423
135	0xbda5ae22	-0.08089854
136	0x3f14b707	0.5809178
137	0xbeccd6d0	-0.4000764
138	0xbd2aa1d7	-0.04165825
139	0x3dffc684	0.12489036
140	0xbe4e69ad	-0.201575
141	0x3f9780ec	1.1836219
142	0x3dd7ad96	0.10531156
143	0x3cc459b0	0.023968548
144	0xbd091455	-0.033466656
145	0x3e6fe40e	0.2342684
146	0x3e37c461	0.17946006
147	0xbec56e54	-0.38560736
148	0x3ea887ad	0.32916012
149	0xbe9c4e65	-0.3052856
150	0xbebdc1d9	-0.37061957
151	0xbeb1d82f	-0.34735247
152	0x3e705d28	0.23473036
153	0x3e51291c	0.20425838
154	0x3d496cab	0.0491759
155	0x3e35414b	0.17700689
156	0xbe52a514	-0.20570785
157	0xbe9811fd	-0.29701224
158	0xbd43a342	-0.047763117
159	0xbf3f6960	-0.74770164
160	0x3e5d1898	0.21591413
161	0xbd9e3189	-0.07724292
162	0x3e4c6f1a	0.19964257
163	0xbe965e1a	-0.2936867
164	0x3e455141	0.19269277
165	0x3c1298e2	0.008947583
166	0x3cb7e2ad	0.022446955
167	0x3e1eab9e	0.15495154
168	0xbd961d8b	-0.073298536
169	0x3e2e935b	0.17048399
170	0x3e26537b	0.16242783
171	0xbe96331a	-0.29335862
172	0x3e62a2ca	0.22132412
173	0x3e5760e6	0.21033058
174	0x3e3d296d	0.18472834
175	0xbe90a8e8	-0.28253865
176	0x3e7a1206	0.24420938
177	0xbec29dd5	-0.3801104
178	0xbec419a9	-0.38300827
179	0xbdc96440	-0.09833574
180	0x3ec01f27	0.37523767
181	0xbe0fb2bd	-0.14033027
182	0x3e23a9aa	0.1598269
183	0x3d5130f4	0.051072076
184	0xbdf9fa61	-0.12205959
185	0xbe37da21	-0.17954303
186	0x3ef0e7b2	0.4705177
187	0xbc1968e7	-0.00936339
188	0xbed9597f	-0.42451093
189	0xbebb2ad2	-0.36556107
190	0xbccb86c6	-0.024844538
191	0x3e24308f	0.16034149
192	0xbcef2f30	-0.029197305
193	0xbe9987bf	-0.2998638
194	0xbe9ac81b	-0.30230793
195	0x3d075aeb	0.03304569
196	0x3f2c8e08	0.6740422
197	0x3eacf446	0.33780116
198	0xbe2fa7c9	-0.17153849
199	0xbcbadd41	-0.02281058
200	0x3edea95f	0.43488595
201	0x3ec7c530	0.3901763
202	0x3e879b90	0.26485872
203	0xbb8440c7	-0.0040360424
204	0xbf054207	-0.52053875
205	0x3db5889e	0.08863948
206	0x3d58aaf2	0.0528974
207	0x3eaaaeb3	0.3333641
208	0xbe5fd7f6	-0.21859726
209	0xbed6f6a6	-0.41985053
210	0xbf2de354	-0.67925
211	0xbe71af28	-0.23601973
212	0x3dcb4928	0.09926063
213	0xbe1c143d	-0.15242095
214	0xbd97908f	-0.07400619
215	0x3dbe2c81	0.09285832
216	0x3d76e9ec	0.06028168
217	0xbe06721a	-0.13129464
218	0xbf25228c	-0.6450584
219	0xbf1416cf	-0.57847303
220	0x3dd2e603	0.102977775
221	0xbf2607c5	-0.64855605
222	0xbfdc8d98	-1.7230711
223	0xbeb141a6	-0.34620398
224	0x3e303ff4	0.17211896
225	0xbe6edc3f	-0.23326205
226	0xbdfceb0b	-0.123495184
227	0x3d4c9c39	0.049953673
228	0x3e6531e5	0.22382315
229	0x3f3f8f97	0.74828476
230	0x3e90ee73	0.28306922
231	0xbe7eb446	-0.24873456
232	0x3db7ca5d	0.089741446
233	0xbe0b9227	-0.13629971
234	0xbf2604cd	-0.64851075
235	0xbd531d12	-0.051541395
236	0xbd3be679	-0.045874093
237	0xbbe88942	-0.0070964405
238	0x3e159aa1	0.14609767
239	0x3e2fea5c	0.17179245
240	0xbdaac1b9	-0.08337731
241	0x3e7fcd0e	0.24980566
242	0xbdc42346	-0.095770404
243	0x3eae7796	0.34075612
244	0x3eb0a0ff	0.3449783
245	0x3e133a52	0.14377716
246	0xbde643fb	-0.11243435
247	0xbe88699a	-0.26643068
248	0xbe785fe5	-0.24255331
249	0xbe460f60	-0.19341803
250	0xbe881652	-0.2657953
251	0x3dd87c66	0.10570602
252	0x3ec1842d	0.37796155
253	0x3e6fbb2a	0.23411241
254	0xbe9eb14c	-0.30994642
255	0x3e6a0b48	0.22855866
