notebooks/logs/ViT_3_last_bias/w_updates.pth (torch, 29410 bytes, 3 tensors)

vit.blocks.9.attn.qkv.bias f4 [2304]
000000 49 9c c0 3f 03 7e e6 3f 88 3a 0a c0 c4 28 1b bf
       1.5047694 1.8007206 -2.1598225 -0.6060908
000010 5d 20 56 3f d7 a3 a9 3f 6d ac 2a bf 7a 5f 1f c0
       0.8364313 1.3253125 -0.6666935 -2.4902024
000020 63 c4 20 c0 51 32 39 40 f5 47 f1 bd 03 98 62 40
       -2.5119865 2.893696 -0.11781303 3.540528
000030 52 7b 24 3f a9 88 93 3f 23 55 ff be e9 ed 22 bf
       0.6425067 1.152608 -0.49869642 -0.6364427
000040 be 46 12 40 34 61 67 3f ba 06 80 3e b1 4a 9e 3f
       2.2855678 0.90382695 0.25005132 1.2366544
000050 cd 18 86 3f b6 2f ab be 6e d8 cd bd b8 00 6b 3c
       1.0476319 -0.33434838 -0.10051046 0.014343433
000060 c9 5b e7 be f3 f0 b8 3f 66 aa 18 3d a4 b1 2f 3f
       -0.45187214 1.4448532 0.03727188 0.68630433
000070 e4 a7 0d 3f 69 89 9d 3f 4f 44 95 3f a4 c4 80 bf
       0.55334306 1.2307559 1.1661471 -1.006001
000080 b4 48 18 40 c9 40 f4 bf 22 5a 42 bf 48 0a 95 3f
       2.3794374 -1.9082271 -0.7591878 1.1643763
000090 25 06 7e 3e 5f 99 05 40 c1 5f c0 3f 64 95 93 3d
       0.24807031 2.087486 1.5029222 0.072062284
0000a0 de 51 5c 3f 4e 68 fb bf ae 38 32 c0 73 cd c8 bf
       0.8606242 -1.9641206 -2.7847095 -1.5687698
0000b0 0d 9d b9 3e 06 da a3 bf 27 5a 36 c0 ba ca b3 bf
       0.36252633 -1.280091 -2.8492525 -1.4046242
0000c0 be f6 b4 be 72 7c 0e 40 18 fe 58 3f ba 7b 44 40
       -0.353445 2.2263455 0.84762716 3.0700517
0000d0 d8 01 38 c0 28 6d 0b c0 76 0f 7a bd bd a3 96 be
       -2.8751125 -2.1785374 -0.0610499 -0.29421797
0000e0 72 44 54 bf b2 5d 0d 3e d8 e7 88 bf 2e 76 b3 bf
       -0.8291694 0.13805273 -1.0695753 -1.402044
0000f0 84 73 a2 bf 5d ce 94 3f 40 8e 1c 3e 58 df 42 3f
       -1.2691503 1.1625477 0.15288639 0.76122046
000100 a8 95 24 3f 64 ac f9 3d a2 09 5c bf 24 72 1d 3f
       0.6429086 0.12191084 -0.859522 0.6150229
000110 24 5a 93 be 60 4c b4 bf c6 fb 94 3f 0c 1d d3 3e
       -0.2877971 -1.4085808 1.1639335 0.41233099
000120 0c 69 52 3e f2 12 a7 bf 62 1d 98 3f 00 e5 4b be
       0.20547885 -1.3052657 1.1883967 -0.19911575
000130 04 f4 41 3f bc 31 4c be af 6e 6f 3f c8 07 04 c0
       0.75762963 -0.19940847 0.93528265 -2.062975
000140 2b c9 04 3f 00 d6 c3 3c 50 8f 4b 40 50 11 a4 3f
       0.5186946 0.023905754 3.180622 1.2817783
000150 09 b4 9f bf e6 3b 96 bf 82 95 fd 3f 51 85 31 be
       -1.2476817 -1.173703 1.9811251 -0.17336012
000160 70 5e 23 3f cc a9 f3 bd 41 95 cb 3e 92 82 be bf
       0.63815975 -0.118976206 0.3976231 -1.4883597
000170 21 7f 6f 40 8b 3b 45 bf 16 6a a8 bf 9a 85 9a bf
       3.7421343 -0.7704398 -1.3157375 -1.2072022
000180 05 25 3f c0 42 dc 0d 40 41 37 c5 3f fa 93 31 3f
       -2.9866345 2.2165685 1.5407487 0.6936642
000190 03 e0 d5 3f d2 95 89 3f dc ab f1 3f 68 77 02 c0
       1.6708988 1.0748847 1.8880572 -2.038538
0001a0 80 a1 49 bd 01 a6 1f 3f 80 9d b8 3e 65 6a 7b 3e
       -0.049226284 0.62362677 0.36057663 0.24552305
0001b0 ce 7b 14 c0 95 93 1e 3f e8 fe f7 3e f0 e1 f9 bf
       -2.3200564 0.6194394 0.48436666 -1.9522076
0001c0 c1 9d 19 bf fc 40 9e 3f 66 59 b4 bf 80 07 f2 3f
       -0.6000634 1.2363582 -1.4089782 1.8908539
0001d0 b5 94 c7 bf 33 b6 08 c0 b5 b7 f5 3e fc 86 2a 3f
       -1.5592257 -2.1361206 0.4799172 0.6661222
0001e0 c2 58 82 3f fa a3 90 3f 4d 0e 1a c0 42 ef f7 bf
       1.0183337 1.1300042 -2.4071229 -1.9369891
0001f0 61 1d ac bf 5a 5f 4d 40 60 27 ca 3d 00 d3 28 bd
       -1.3446466 3.2089448 0.098707914 -0.04121685
000200 63 63 2b c0 06 f3 11 3d 9f 30 2e bf a2 7a c7 3f
       -2.677941 0.035632156 -0.6804294 1.55843
000210 a8 b4 09 be 56 0c 34 c0 2e a2 92 bd 4c d0 1b 3e
       -0.13447821 -2.813253 -0.071598396 0.15216178
000220 a9 40 11 bf 54 d4 03 3d 8e e4 a7 bf 58 00 f8 3e
       -0.5673929 0.032184914 -1.3116624 0.48437762
000230 10 8e 10 3f 56 a2 55 bf af 2b 13 be 92 a1 bd bf
       0.5646677 -0.8345083 -0.14372133 -1.4814932
000240 62 29 b8 bd 2b 30 e2 bf e0 f0 04 bf ad 85 57 be
       -0.08992268 -1.767095 -0.51930046 -0.21047087
000250 18 75 17 3f 57 b1 e5 bf 90 64 0b bf f4 4f 20 40
       0.59163046 -1.7944745 -0.5445032 2.50488
000260 3d de aa 3f cf 15 45 3f a6 5e 3a c0 36 be 1a 40
       1.3349072 0.769864 -2.912027 2.4178596
000270 28 d6 7d be 1d 74 7e 40 96 88 9f be 3a d9 b1 3f
       -0.24788725 3.975837 -0.31158894 1.3894417
000280 c3 9c bf 3e 32 c9 4c be 78 75 f1 3f df 2c 1d c0
       0.37424287 -0.19998625 1.8863974 -2.4558637
000290 5e d3 13 3e c3 51 d1 bf 61 ea b8 bf dc 43 46 3f
       0.14436099 -1.6353077 -1.4446527 0.77447295
0002a0 5b 72 56 c0 f7 cd ef be 96 e8 8c 3f 52 8e c1 3c
       -3.3507297 -0.46836826 1.100848 0.023627434
0002b0 94 f9 80 bf 9d 8a 16 3f bb 6b 8c c0 2e ac 0b 3e
       -1.0076165 0.5880526 -4.3881507 0.136399
0002c0 9f 76 18 40 25 61 0d 40 ad f1 ae bf ae 1b 32 bd
       2.38224 2.2090542 -1.3667504 -0.04348343
0002d0 bc 82 78 3f 6a e6 1e c0 98 ff 08 3e 30 f9 1c 3f
       0.97074485 -2.4828134 0.13378751 0.6131773
0002e0 3c d6 85 3d 06 99 53 bf 57 97 11 3f 8c be 45 3f
       0.065350026 -0.8265537 0.5687155 0.77243876
0002f0 5c 17 dd 3f 77 c0 4a 3f 73 3f 09 c0 00 8a 20 bf
       1.7272754 0.7919993 -2.1444976 -0.6271057
000300 26 44 20 c0 f1 e6 44 3f f8 f2 2b 3f 08 70 b0 3d
       -2.5041595 0.7691489 0.67167616 0.08615118
000310 6c 82 62 c0 40 09 ea 3f 0b d8 5a be a8 ab 0b 40
       -3.5392103 1.8284073 -0.21371476 2.182352
000320 98 f2 26 c0 a4 6d f7 3f 7c e7 02 bf 1e 01 84 40
       -2.6085567 1.9330335 -0.5113447 4.1251364
000330 20 ff 93 3d 98 f1 87 3f 5e 69 95 3f c0 95 23 3f
       0.072263956 1.0620604 1.167278 0.63900375
000340 6e d5 02 bf 05 ae a3 bf fc 26 a9 3f ac 94 b0 3f
       -0.5110692 -1.2787482 1.3215022 1.3795371
000350 85 d4 b2 be ee bc cd 3f a0 73 36 3f 30 fe ac 3f
       -0.34927765 1.6073282 0.7127018 1.3515072
000360 73 eb 97 3f 1c 37 b2 3f b4 e8 10 c0 b0 4e ca bf
       1.1868728 1.3923068 -2.264203 -1.5805264
000370 88 de 0e 40 a7 02 f6 bf 24 04 fd 3f 8c a0 64 bf
       2.2323322 -1.921956 1.9766889 -0.89307475
000380 78 64 fa bf 3d 5b ba 3f 50 c0 10 c0 40 65 af bb
       -1.9561911 1.4559094 -2.2617378 -0.005352646
000390 0b 08 84 3f 18 b4 67 3f 2a 4e b4 bf 6c b0 a5 c0
       1.0314955 0.90509176 -1.4086354 -5.177786
0003a0 0e eb 27 c0 8e f0 17 c0 1e c6 66 bf ea 45 01 3f
       -2.6237216 -2.3740573 -0.9014605 0.50497305
0003b0 60 19 6c 40 a0 e4 37 40 b0 93 44 3d ff ba a0 bf
       3.6890488 2.8733292 0.04799241 -1.2557067
0003c0 f7 65 44 c0 e6 92 d3 bc 4e dd 82 be 53 df a9 bf
       -3.0687234 -0.025826883 -0.25559467 -1.3271278
0003d0 31 55 4c 40 f0 38 29 c0 69 4b 14 c0 38 a1 fc 3e
       3.1926997 -2.6441002 -2.3171027 0.4934175
0003e0 bc ca 21 bf 7d 08 ae 3f 6b 41 32 bf 6a 22 30 3f
       -0.63199973 1.359634 -0.6963107 0.6880251
0003f0 50 b2 79 3f 66 3b ed 3f 2c 32 5c bf 39 30 18 3e
       0.9753771 1.8533752 -0.86014056 0.14862145

vit.blocks.10.attn.qkv.bias f4 [2304]
000000 c9 c3 e2 be d9 45 fc 3e 76 77 06 40 13 7a 10 c0
       -0.44289997 0.4927204 2.1010413 -2.2574508
000010 e9 d3 fc be 24 9c 9b 40 22 14 3c 3f 2f 32 7a 3e
       -0.49380425 4.86281 0.7346822 0.24433206
000020 69 a1 85 bf be 3c 32 3f c0 bb 43 3f b6 0b 06 be
       -1.0439883 0.69623935 0.7645836 -0.13090405
000030 a2 25 e7 bf d4 0a e1 3b c4 ac 8f bf cd 2e 9b bf
       -1.805836 0.006867746 -1.1224599 -1.2123657
000040 d4 47 37 40 5d b3 cd 3f ed 57 12 40 b9 90 98 bf
       2.863759 1.6070362 2.2866166 -1.1919166
000050 53 11 b3 bf 1d a9 3f c0 86 bd b2 3e 1d c9 d4 3f
       -1.3989662 -2.9946969 0.3491022 1.6623875
000060 03 f1 8b 3e 20 e3 95 be 34 98 c9 bf 4c fd 57 bf
       0.27332315 -0.29274845 -1.5749574 -0.84370875
000070 1e 1d c8 3f 88 cc 5c 3e 82 8f ed bf ad c3 d8 3f
       1.5633886 0.21562397 -1.855942 1.6934716
000080 9c d0 c9 3f fc 13 85 3f 92 08 d7 bf 84 80 57 3f
       1.5766788 1.0396724 -1.679949 0.84180474
000090 3d 95 e8 bf 1a 83 d8 be fb 33 83 3f a0 15 f4 3f
       -1.8170544 -0.42287523 1.0250238 1.90691
0000a0 f8 e7 1b 3f d8 51 08 40 7b c8 18 40 c4 95 e4 3d
       0.6090083 2.1299953 2.3872364 0.11161378
0000b0 26 f1 96 3f 77 9a 55 bf 01 72 61 be bf 88 04 c0
       1.1792343 -0.8343882 -0.22016145 -2.0708463
0000c0 44 25 08 bf e7 f9 35 3f 7b 02 9f bf 61 12 47 40
       -0.5318186 0.71084446 -1.2422632 3.1104968
0000d0 54 8e 15 40 80 ff 78 40 70 ce 82 3f 2a a7 8c bd
       2.336812 3.8905945 1.021925 -0.068678215
0000e0 06 58 25 bf e1 6a 07 3e 6e 2b c5 3f 3f 6c e7 3f
       -0.6458744 0.13224365 1.5403879 1.8079909
0000f0 d6 96 00 3f 17 b7 2d bf e6 7f 87 3e 60 33 8e be
       0.5023016 -0.678575 0.26464766 -0.2777357
000100 e7 e3 f1 3f b5 9b 1d 3f 2a 7b 74 be 3a be 27 3f
       1.8897675 0.61565715 -0.23875108 0.6552464
000110 30 39 82 be 27 81 51 3f 25 ac 65 bf 9c 20 d0 3f
       -0.25434256 0.81837696 -0.89715797 1.6259952
000120 aa 8e 49 3f 8f 13 cd be ad 06 8e 3e 56 28 f5 bc
       0.78733313 -0.40053985 0.27739468 -0.02992646
000130 5c ad 00 3e 47 ae 9e bf 90 c2 07 be da 5b e9 bd
       0.12566131 -1.2396935 -0.13257813 -0.113944724
000140 0c 6b c3 be ab e5 ed bf bd c9 ad bf 3c f5 f8 3f
       -0.38167608 -1.8585714 -1.3577191 1.944984
000150 ae a7 9f 3f 2f 6a 82 3d 96 37 e7 3e 4f 86 97 3e
       1.2473047 0.06367909 0.45159596 0.29594657
000160 85 6b 7b be 83 52 05 be b4 61 2a bf a7 0b fa bf
       -0.24552734 -0.13019757 -0.66555333 -1.9534806
000170 7b 82 a4 bf 70 af de bd 40 6e e7 3f 7c e5 74 bf
       -1.285232 -0.10873306 1.8080521 -0.95662665
000180 02 e5 84 be 59 1f 53 bf a6 8d 89 be 33 8c 24 3e
       -0.2595597 -0.8246971 -0.26865882 0.16069107
000190 fa da 73 3f cf df c6 3e 98 0c e6 3e a4 db cd 3e
       0.95256007 0.38842627 0.44931483 0.40206635
0001a0 36 ca af bf c2 96 26 3f 69 c9 80 3d 9c d8 86 be
       -1.3733585 0.6507379 0.06288416 -0.26337135
0001b0 0a df bb 3f 50 4d 32 3f f2 44 e4 bf 6c 63 7b 3f
       1.4677441 0.6964922 -1.783354 0.9819858
0001c0 72 b7 dc bd c4 64 13 3e 33 41 af 3e 3d e5 db bf
       -0.10777177 0.14393908 0.3422943 -1.7179333
0001d0 c9 8d be 3f fd ab 53 3e 98 95 e0 3e e6 27 b8 3d
       1.4887019 0.20671077 0.4386413 0.08991985
0001e0 4d 23 6a be eb e1 78 3f 6e 4b 81 bf cd 85 9c 3e
       -0.22865029 0.97219723 -1.0101144 0.30570832
0001f0 07 01 52 be 15 84 29 3f d8 76 bb 3f 50 cd 57 3e
       -0.20508204 0.66217166 1.4645643 0.21074414
000200 75 cc 8e bf 24 79 43 3e d2 40 73 3e 31 85 ea bf
       -1.1156145 0.1908918 0.23755196 -1.8321897
000210 34 38 01 c0 62 9e f9 be cb 84 4a 3f be 62 54 3f
       -2.0190554 -0.4875365 0.79108876 0.8296317
000220 c4 2c e6 bf 4f a0 eb 3f 69 79 24 40 e4 9f a1 3f
       -1.7982411 1.8408297 2.5699103 1.262692
000230 7a 90 66 bf 6a 12 1d 40 92 ed b9 bf d3 08 09 3f
       -0.90064204 2.454249 -1.4525626 0.5352909
000240 4c 11 20 40 f1 fe 90 3f 96 4a 86 be 96 47 87 3f
       2.5010557 1.1327802 -0.2622878 1.0568721
000250 1b a8 39 40 48 fd b1 3e a4 06 ef 3f 51 5e 17 40
       2.9008853 0.3476355 1.8673902 2.3651316
000260 9c 82 4e 40 4e 18 c8 bf 7d 2d 63 bf 11 e4 c2 3f
       3.2267218 -1.5632417 -0.88741285 1.522585
000270 ab 27 2d 3f f9 99 2f 40 12 c1 2c bf c6 a2 eb 3f
       0.67638654 2.7437727 -0.674821 1.840905
000280 9d bf a5 3c cd 03 cf bf 0b 79 0c 3f a1 89 4e bf
       0.02023297 -1.6173035 0.54872197 -0.80678755
000290 fa c3 c9 3f c0 2c 16 bd d2 93 d7 3e 14 6d 0b 3e
       1.5762932 -0.03666377 0.42104965 0.13615829
0002a0 ae b2 b4 be 47 15 13 c0 80 07 bc be 88 78 98 3f
       -0.35292572 -2.2981737 -0.36724472 1.1911783
0002b0 2c 72 94 3d 21 02 13 40 8f c9 83 bf 92 d9 7a bf
       0.07248339 2.297005 -1.0295886 -0.97988236
0002c0 f3 c0 1e bf 71 2e 9c 3f f9 22 04 bf ec 6a 6c bf
       -0.6201317 1.2201673 -0.51615864 -0.9235065
0002d0 02 05 aa bf b3 49 01 40 8b 48 4a be 15 2c a5 bf
       -1.3282778 2.0201232 -0.19754235 -1.2904078
0002e0 ad ac 18 bf dd 4b 9d bf 98 28 db 3e 83 98 b3 bf
       -0.5963848 -1.2288777 0.42804408 -1.4030918
0002f0 2f cc 71 bf ef 91 06 40 31 be 69 bf 40 ed d4 3e
       -0.94452184 2.102657 -0.91305834 0.41587257
000300 e8 10 4e c0 b8 3c 1e 3f f0 94 c5 3c 3c 14 5b c0
       -3.2197819 0.618114 0.02411887 -3.42311
000310 50 3f d3 3f 38 db 16 c0 60 58 d5 3e ff fa dc 3e
       1.6503696 -2.35713 0.41668987 0.43160245
000320 e5 16 75 be b7 b0 1c 40 ba bb 20 3e 68 cc 16 3f
       -0.23934515 2.4482858 0.15696612 0.5890565
000330 09 f5 83 3e 59 5c 7c 40 a5 76 4d bf 7f e0 32 40
       0.25772884 3.9431365 -0.8025916 2.7949522
000340 2b ba 35 c0 6b 70 e4 3e 25 52 04 c0 68 d1 c5 bf
       -2.8394878 0.44617018 -2.0675137 -1.5454531
000350 1c b3 a2 bf 48 53 c7 3f 9f f1 13 3d 18 8f 38 3e
       -1.271091 1.557229 0.0361191 0.18023336
000360 e0 16 3a 40 e4 b3 59 c0 7e c2 ed be ab f2 50 bf
       2.9076462 -3.4016047 -0.46437448 -0.8162028
000370 ec 0f 38 be 07 3c e6 3e 9e 80 7a 3f 05 cf ff be
       -0.17974824 0.44967672 0.97852504 -0.4996263
000380 5d 1e 28 3f e7 ab e4 3f 32 94 bf bf 5d 02 40 c0
       0.6567133 1.786496 -1.4967101 -3.0001442
000390 91 43 e0 3f 3c fe b6 3d c0 a6 21 be 0a e8 29 40
       1.752062 0.0893521 -0.15786266 2.6547875
0003a0 b7 98 8d 3f ea 59 7b bf 32 30 f7 3f 48 fe 33 bf
       1.106223 -0.9818407 1.9311583 -0.7030988
0003b0 39 8f 36 c0 5f bf 8b 3f ef 25 8c bf 69 f7 c8 be
       -2.8524916 1.0917777 -1.0949076 -0.3925126
0003c0 46 65 8d bf 53 7d 80 bd 3a 60 8e bf aa eb a6 be
       -1.1046531 -0.06273904 -1.1123116 -0.32601672
0003d0 04 cf 01 be c0 97 0d 3f 08 c7 85 be 00 8a 1a bc
       -0.12676626 0.5530968 -0.2612841 -0.009432316
0003e0 a3 e6 d4 3f b0 48 58 c0 34 3d 72 bf cc 80 17 c0
       1.6632885 -3.3794365 -0.9462464 -2.3672361
0003f0 93 55 a2 bf 43 d5 0b 40 15 99 3d 40 80 c0 3b 3d
       -1.2682365 2.1848915 2.9624684 0.04583788

vit.blocks.11.attn.qkv.bias f4 [2304]
000000 8f 5c 62 bf b0 c2 44 bf 63 67 ad 3d 25 fc 00 3f
       -0.88422483 -0.7685957 0.08466985 0.5038474
000010 51 9f 03 c0 c3 ac 8f bf c9 32 d4 bf 60 77 b9 3e
       -2.056599 -1.1224598 -1.6577998 0.36223888
000020 a6 01 8c 3f 94 86 08 3e e5 7b 26 40 7d 9e 21 40
       1.0938003 0.13332587 2.601312 2.5252984
000030 ac 1b 49 bf 34 bf 12 bf d8 c1 8d 3f 10 0b d9 bf
       -0.7855785 -0.57323 1.1074781 -1.6956501
000040 42 f4 a5 3f 52 d7 8c be 04 8d 46 3f 45 fd 56 3e
       1.2965167 -0.27508026 0.7755892 0.20995052
000050 87 9f 1d 40 db 05 bd 3f d7 59 e3 3f 48 45 ad be
       2.4628618 1.4767412 1.7761792 -0.3384192
000060 51 ba ef bf 9b 1f a7 bf 97 cf 93 bf 94 38 43 be
       -1.8728734 -1.305652 -1.1547726 -0.19064552
000070 bb 45 e9 3e eb 5f 21 40 a0 67 ef bf 86 d2 07 40
       0.45561013 2.5214794 -1.8703499 2.1222243
000080 91 a6 0f 40 63 dc 1b bf ca 67 1e 3f 8f dd 98 bf
       2.2445414 -0.6088316 0.6187712 -1.1942614
000090 f0 ff 2a 3f dc f9 26 3e 86 1e 5e bf 25 1b 6f bf
       0.6679678 0.16306251 -0.86765325 -0.93400794
0000a0 25 aa 2d 3f 0b a1 d3 3f 80 c5 23 bf fb ee 0b 40
       0.67837745 1.6533521 -0.63973236 2.1864612
0000b0 e9 38 e9 3f a4 39 fc bd 92 4b b7 3e fe 3e 95 3f
       1.8220493 -0.123156816 0.35799843 1.1659849
0000c0 a6 d2 0f 3e 41 3c 4e be bb 6b a5 3f 18 94 5d bf
       0.140452 -0.20140173 1.2923502 -0.865541
0000d0 02 af 67 bf 4c 36 85 c0 da cb 88 bf f0 41 96 bf
       -0.90501416 -4.162878 -1.068721 -1.1738873
0000e0 07 ff c8 3f 81 da 08 c0 e9 27 24 3f 5b 2a 86 bd
       1.5702828 -2.1383364 0.641234 -0.065510474
0000f0 17 ca 9c 3f 82 8c 8d be 56 91 12 c0 2d 1b 5b bf
       1.2249173 -0.2764626 -2.2901206 -0.8558834
000100 07 fc ca bf 85 ae 90 3f cc a6 81 3f 39 13 e3 bf
       -1.5858163 1.1303259 1.0129027 -1.7740241
000110 9f b2 eb 3e 95 08 64 40 c6 1c bf be 63 fa 33 bf
       0.46034715 3.5630238 -0.3732664 -0.70303935
000120 2c 71 b9 bf f2 b2 7f 3f 6f 64 a2 3f d8 08 95 c0
       -1.4487662 0.99882424 1.26869 -4.6573296
000130 de 26 ea 40 e6 1c 2e bf 84 6b f7 bf 2a 49 cd 3f
       7.3172445 -0.68012846 -1.9329686 1.6037953
000140 3d 6a 40 40 02 18 9f bd e2 48 f0 3f ad 2c af c0
       3.0064843 -0.07768251 1.8772242 -5.4742036
000150 8f a4 29 3f 96 ee a7 3f 7b 16 40 40 c6 c3 04 c0
       0.6626672 1.3119686 3.001372 -2.074449
000160 56 0c b2 40 f2 b9 c8 3f b0 00 9e 3f 5e 7b 43 c0
       5.564006 1.5681746 1.234396 -3.0544047
000170 a2 74 a5 3f d6 43 fd 3e 46 a1 0a 3f 73 89 5e bf
       1.2926219 0.49465817 0.54152334 -0.8692848
000180 13 8e 1b 40 39 01 bf bf 58 60 eb be 07 e9 0c 3e
       2.4305465 -1.4922248 -0.45971942 0.13760768
000190 da 16 6a 3f 62 9a 72 40 f0 fa 64 bf 1c ad df 3e
       0.9144112 3.7906728 -0.894454 0.4368676
0001a0 c8 ff ca 3e fa 03 3d 40 01 e3 2d c0 02 1e 05 c0
       0.3964827 2.9533677 -2.7169802 -2.0799565
0001b0 8e fa 43 3f da 99 f5 bf 46 6b a9 3e f7 b8 6a c0
       0.7655419 -1.9187577 0.33089656 -3.6675394
0001c0 4e 5f 54 3f 85 f0 26 40 74 39 5f 3e c8 f3 de bf
       0.82957923 2.6084301 0.2179926 -1.7418146
0001d0 64 d3 91 3f 84 df 31 3f 18 04 44 3f 04 8b bf 3f
       1.1392636 0.6948168 0.76568747 1.4964299
0001e0 13 7c 22 be 33 90 0d c0 7e 0e 19 c0 2c 7e 74 3f
       -0.15867643 -2.2119262 -2.3915095 0.95505023
0001f0 51 7f 90 be 8e 33 83 3f 18 2b 18 3e 37 5c cf bf
       -0.28222135 1.0250108 0.14860189 -1.6200017
000200 9c 53 b1 be 0e 90 a7 3f cf 92 6e 3f d8 d5 db 3f
       -0.346341 1.3090837 0.9319276 1.7174635
000210 bc bf a6 3f 6a 83 49 40 0c ec 1e c0 3c b0 9b 3f
       1.3027263 3.1486459 -2.4831572 1.2163157
000220 c4 85 96 3f 8d 10 60 c0 58 b5 23 3f b4 14 43 bf
       1.1759572 -3.5010102 0.63948584 -0.76203465
000230 1f c5 8b bf 04 ae ad 3f 01 a1 ae bf 82 de 9d bf
       -1.0919532 1.356873 -1.3642884 -1.2333529
000240 47 09 75 3e c6 61 1e 40 32 f8 11 bf 2a 63 27 c0
       0.2392932 2.4747176 -0.5701934 -2.6154275
000250 fd 23 00 40 aa 16 08 c0 4a 18 3a 3f 3a d0 03 c0
       2.0021966 -2.1263833 0.7269331 -2.0595841
000260 e3 fc e7 3f eb 9d b5 be c9 d4 36 bf 5c 72 5b 40
       1.812405 -0.35472044 -0.71418434 3.428855
000270 65 82 70 3c c4 d5 09 c0 9d 94 d1 bf 48 02 7d 3f
       0.014679526 -2.1536722 -1.6373478 0.98831606
000280 61 5b 65 c0 e0 93 2c 40 62 14 39 40 d4 97 50 3f
       -3.5837023 2.6965256 2.891869 0.8148167
000290 bc 6c 44 40 2f a6 3f bf be d1 15 be d6 43 af 3f
       3.0691366 -0.7486295 -0.14630792 1.3692577
0002a0 6b a2 c6 bf 19 e6 ce bf 01 cc 41 bf c7 e2 ce bf
       -1.5518316 -1.616397 -0.7570191 -1.6162957
0002b0 4b 10 37 40 83 38 7a 3e a6 47 be bd 65 76 85 3f
       2.8603694 0.2443562 -0.092910096 1.0426756
0002c0 d0 23 17 40 aa 49 36 bf 38 1c 65 c0 ae d3 78 bf
       2.3615608 -0.7120615 -3.5798473 -0.97198
0002d0 d8 d9 3e bf 0a 99 f4 bf 4d ff f9 bf 6c a7 87 3f
       -0.74551153 -1.9109204 -1.9531037 1.0597968
0002e0 0d 4f 1d bf 59 3b 30 c0 e2 67 d0 be f6 67 33 bf
       -0.61448747 -2.7536223 -0.40704256 -0.70080507
0002f0 61 32 27 c0 c9 50 c6 3d 3e 38 d3 bf 99 f5 73 bf
       -2.61245 0.09683377 -1.6501539 -0.9529663
000300 49 c2 1e c0 3a df ba bf a6 c6 4b 40 72 83 8b 3f
       -2.4806082 -1.4599373 3.1839995 1.0899489
000310 f7 b0 f0 3f 88 d3 11 40 88 b8 41 bf 7c 27 a9 3f
       1.8804005 2.2785358 -0.756722 1.3215175
000320 a4 0e fa 3f 17 d2 45 c0 0d e8 ab be 64 b3 14 c0
       1.9535718 -3.0909479 -0.33575478 -2.3234491
000330 47 aa 84 bf b0 a2 bc bf da 2a 64 3f 38 4a 27 40
       -1.0364465 -1.4737148 0.89127886 2.613905
000340 9d 69 d9 be 9e 6e 6c 3e c0 31 3e c0 39 65 b3 bf
       -0.4246339 0.23089072 -2.9717865 -1.4015266
000350 92 f8 78 bf c7 1b 56 c0 55 53 be be 4e 9d 41 be
       -0.9725429 -3.3454454 -0.37172952 -0.18907663
000360 e4 c6 09 40 5a 51 14 c0 d4 48 3f bf 9f 67 05 c0
       2.1527643 -2.3174653 -0.747205 -2.0844495
000370 84 13 99 be 19 25 24 c0 1f fe 36 c0 e4 95 35 c0
       -0.29897702 -2.5647643 -2.8592603 -2.8372736
000380 71 35 03 40 b1 f2 af 3f 51 db 1e bf ef bc f7 3e
       2.0501368 1.3745939 -0.620534 0.48386332
000390 01 dc 9c bf cf 25 c0 40 b8 e3 19 40 c1 fe 26 c0
       -1.225464 6.0046153 2.4045238 -2.609299
0003a0 ab 60 b4 3f 50 aa f1 bf f1 a3 39 3f d0 bf 5e bf
       1.4092001 -1.88801 0.7251578 -0.8701143
0003b0 93 01 23 be e8 c9 ee be 52 58 d7 3f 6c ee af 3f
       -0.1591857 -0.46638417 1.6823828 1.3744636
0003c0 86 f3 61 3f 5d e0 69 40 fd b3 87 3f 69 a9 19 40
       0.8826221 3.654319 1.0601803 2.400965
0003d0 1d 72 1a 40 30 8c ba be 91 15 50 3f 17 08 4f bf
       2.413215 -0.3643508 0.8128291 -0.8087172
0003e0 0f ed 12 c0 c1 81 ee bf d2 3f 95 be 2c 63 39 bf
       -2.295719 -1.8633348 -0.29150254 -0.7241695
0003f0 6b 1d 34 c0 cd 9e 41 40 03 0b cf bf 49 5a 2a c0
       -2.8142955 3.0253174 -1.6175236 -2.6617606
